mnist_cnn.pt (torch, 219039 bytes, 4 tensors)

conv.weight f4 [32, 1, 3, 3]
0.26229748 -0.23497818 0.025483757 0.13562742 0.044378307 0.18199426 -0.2805532 -0.1667454
0.2820992 0.038423963 -0.083454065 0.08393146 -0.08171482 -0.21810782 0.13501701 -0.48704433
0.26276416 0.28955388 0.06740555 0.24578115 -0.2627235 -0.0131207 0.07948449 -0.12319432
-0.25279784 -0.2680111 -0.24490032 0.16351774 -0.25269073 -0.24902348 -0.2018634 -0.016314352
-0.03527949 0.26319933 0.11504277 0.23746699 -0.027900523 0.25363 -0.012894312 0.21603642
0.03591856 0.15123825 -0.31118566 -0.093302466 -0.1372553 0.07439497 0.11463324 -0.0032017634
0.28781864 0.081616335 -0.42306742 0.13345756 -0.35249305 -0.118514955 -0.31663764 -0.23554258
0.41647068 -0.39669946 0.04915998 0.22475982 -0.058211062 -0.27570406 0.23957957 0.1392665
-0.14025846 -0.07274877 0.29924047 0.13113488 -0.4889751 0.2734334 -0.3361267 -0.17791913
0.28069273 -0.045582972 -0.31645948 0.09886014 -0.43687418 0.27261856 -0.13279356 -0.19790366
0.19017054 -0.46169776 -0.08976451 -0.27717653 0.008825776 -0.28855997 -0.23648238 0.39950615
0.39929563 0.010141598 -0.32793587 -0.08655378 0.27233717 -0.17287886 -0.1919912 0.28319186
-0.19039936 -0.14566317 -0.08618032 -0.328205 -0.45856464 -0.104794264 0.20738904 0.2316507
-0.2515818 0.17080924 0.10334896 0.018351484 -0.16276966 0.2945849 0.13914023 -0.2804852
-0.3754779 -0.37406957 0.221197 0.28073373 -0.08282466 -0.0020302304 0.41365018 0.41032094
-0.48869276 -0.32961482 0.27703115 -0.21786156 -0.27890167 -0.5469389 -0.2777985 -0.00057401933
-0.12019059 0.22204818 -0.14616549 -0.15980956 0.2366907 -0.21322627 0.24304202 -0.17336069
-0.31299305 -0.06852878 -0.30983627 0.020218898 -0.07054671 -0.14217435 0.2836955 0.23901755
0.1690184 0.18615164 0.35681066 -0.47573164 -0.2742301 -0.42489326 0.28601223 -0.10242376
0.09631329 0.103233606 0.037698504 0.050013125 -0.37971386 0.08381916 0.24125956 0.24250688
0.11302062 -0.062781796 -0.5338347 0.07954055 0.2002159 -0.10807593 0.23839585 0.19274023
0.15477203 0.011953295 -0.25902206 -0.13736144 -0.30683562 0.30145532 0.2967261 -0.57794523
0.16181895 0.25223163 -0.22250044 -0.07416443 0.2069469 -0.061282236 -0.02634249 0.06759038
0.23769 -0.020177994 -0.2980153 0.12904051 0.17273323 -0.083621815 0.18046844 -0.34307083
-0.071524106 0.23838823 -0.015117755 0.20858477 0.026617186 -0.06449534 -0.04271865 -0.18079446
-0.015924182 -0.20791616 0.25368 0.15748747 0.17458291 -0.074837886 0.13482592 -0.029687501
-0.22382851 -0.2734895 -0.21574996 -0.08516078 0.052636378 -0.25644022 0.16986336 0.19109787
0.16472477 -0.22568172 0.33305058 0.086581394 -0.021374263 0.1867852 -0.09896482 -0.29725385
-0.38345194 -0.34833077 -0.28093854 -0.05385327 -0.07115538 0.23595701 -0.25131792 0.2855029
0.121745944 0.17682561 -0.045082927 0.25614247 0.1165432 -0.10673063 0.14813505 0.43552896
-0.45785493 -0.39723423 -0.57918644 -0.2110808 -0.18803415 0.1578075 -0.21483326 -0.05145897
0.29978728 -0.09680003 -0.23283571 0.17551668 0.31624395 -0.3611308 0.015715456 0.18154952
00000000: db4b 863e 1f9e 70be 50c3 d03c eae1 0a3e
00000010: 07c6 353d b45c 3a3e aba4 8fbe 4ebf 2abe
00000020: 4e6f 903e 7262 1d3d f7e9 aabd 42e4 ab3d
00000030: 195a a7bd a857 5fbe e641 0a3e e05d f9be
00000040: 0689 863e 6840 943e ec0b 8a3d 0eae 7b3e
00000050: b283 86be 34f8 56bc c4c8 a23d 4e4d fcbd
00000060: b86e 81be c038 89be 26c7 7abe 3271 273e
00000070: ae60 81be 0300 7fbe 47b5 4ebe ada5 85bc
00000080: 3a81 10bd 10c2 863e 8b9b eb3d 8c2a 733e
00000090: a38f e4bc cbdb 813e aa42 53bc a738 5d3e
000000a0: 571f 133d 33de 1a3e ba53 9fbe 5d15 bfbd
000000b0: a78c 0cbe 645c 983d d5c4 ea3d add4 51bb
000000c0: f75c 933e 7726 a73d 4b9c d8be 19a9 083e
000000d0: f879 b4be f8b7 f2bd 541e a2be 1332 71be
000000e0: a53b d53e 311c cbbe fa5b 493d 7027 663e
000000f0: b96e 6ebd 1529 8dbe 5954 753e e19b 0e3e
00000100: ea9f 0fbe 4ffd 94bd 0c36 993e 3948 063e
00000110: f25a fabe 76ff 8b3e cc18 acbe 6f30 36be
00000120: f5b6 8f3e 36b5 3abd fa06 a2be 2f77 ca3d
00000130: f9ad dfbe a994 8b3e 09fb 07be 42a7 4abe
00000140: 11bc 423e a663 ecbe 75d6 b7bd 15ea 8dbe
00000150: fd99 103c 22be 93be 7028 72be 128c cc3e
00000160: 7a70 cc3e f228 263c 36e7 a7be 1c43 b1bd
00000170: c76f 8b3e 2807 31be 5799 44be 86fe 903e
00000180: 0df8 42be ba28 15be 4f7f b0bd 7c0a a8be
00000190: fcc8 eabe 609e d6bd cb5d 543e d735 6d3e
000001a0: 54cf 80be 9ee8 2e3e 9fa8 d33d da55 963c
000001b0: 17ad 26be d5d3 963e c77a 0e3e c29b 8fbe
000001c0: a43e c0be 0c86 bfbe 7781 623e 55bc 8f3e
000001d0: fa9f a9bd 9d0d 05bb f5c9 d33e 9615 d23e
000001e0: f035 fabe 46c3 a8be 07d7 8d3e 1a17 5fbe
000001f0: 33cc 8ebe 3004 0cbf 9b3b 8ebe c979 16ba
00000200: 7c26 f6bd 9960 633e 68ac 15be 1ea5 23be
00000210: 0c5f 723e fd57 5abe 02e0 783e 7785 31be
00000220: a040 a0be d158 8cbd dca2 9ebe 1aa2 a53c
00000230: cb7a 90bd 2796 11be 8940 913e 04c1 743e
00000240: 2913 2d3e 899e 3e3e e3af b63e 1993 f3be
00000250: e367 8cbe 9c8b d9be 3270 923e 8cc3 d1bd
00000260: e73f c53d 246c d33d bf69 1a3d 90da 4c3d
00000270: db69 c2be 61a9 ab3d bf0c 773e b953 783e
00000280: 5b77 e73d be93 80bd 64a9 08bf 28e6 a23d
00000290: 6605 4d3e ea56 ddbd 0b1e 743e b25d 453e
000002a0: 8f7c 1e3e c1d7 433c 8a9e 84be 7aa8 0cbe
000002b0: 8f19 9dbe 5a58 9a3e 7cec 973e 38f4 13bf
000002c0: deb3 253e 8124 813e 28d7 63be 85e3 97bd
000002d0: e3e9 533e 1503 7bbd 35cc d7bc d36c 8a3d
000002e0: 0265 733e 524c a5bc 7695 98be 3223 043e
000002f0: fbe0 303e ea41 abbd b8cc 383e fba6 afbe
00000300: 3b7b 92bd 0b1c 743e 76b0 77bc 3f97 553e
00000310: 490c da3c 2216 84bd c0f9 2ebd 2f22 39be
00000320: 6e73 82bc f9e7 54be 58e2 813e 6544 213e
00000330: ddc5 323e 9b44 99bd ce0f 0a3e 3433 f3bc
00000340: 4d33 65be d106 8cbe 8fed 5cbe c668 aebd
00000350: 3e99 573d 224c 83be a9f0 2d3e 29af 433e
00000360: 9cad 283e 1c19 67be 9b85 aa3e 9651 b13d
00000370: 1419 afbc 9f44 3f3e 11ae cabd a831 98be
00000380: d053 c4be 6958 b2be 2dd7 8fbe 3f95 5cbd
00000390: e9b9 91bd b79e 713e beac 80be 702d 923e
000003a0: f055 f93d c611 353e e0a8 38bd 1b25 833e
000003b0: 34ae ee3d 9795 dabd b7b0 173e a7fd de3e
000003c0: f66b eabe 4962 cbbe 9045 14bf 9125 58be
000003d0: 068c 40be 4a98 213e 40fd 5bbe a4c6 52bd
000003e0: b87d 993e 183f c6bd 7c6c 6ebe a5ba 333e
000003f0: baea a13e 23e6 b8be b3bd 803c 1ee8 393e

conv.bias f4 [32]
-0.47235784 -0.18235457 -0.21061791 -0.1644827 0.053215034 -0.33318308 -0.21629821 -0.17502132
-0.05999463 -0.050828364 -0.19477986 -0.04857472 -0.035385493 -0.3259987 -0.038053155 -0.09863294
-0.11000039 -0.32432923 -0.2936074 -0.032899406 -0.10166934 -0.01078727 -0.018906655 -0.036708917
-0.12928003 -0.0017618582 -0.14412053 -0.0153619675 -0.3406577 -0.18448208 -0.082782716 -0.2817362
00000000: e3d8 f1be 28bb 3abe 39ac 57be 276e 28be
00000010: 02f8 593d f996 aabe 477d 5dbe ca38 33be
00000020: eebc 75bd 6731 50bd 5f74 47be 49f6 46bd
00000030: 61f0 10bd 4de9 a6be a0dd 1bbd 1100 cabd
00000040: e247 e1bd 7b0e a6be b653 96be 87c1 06bd
00000050: 0438 d0bd 17bd 30bc 21e2 9abc 175c 16bd
00000060: fc61 04be 27ee e6ba 5594 13be c3b0 7bbc
00000070: b06a aebe dfe8 3cbe fc89 a9bd ba3f 90be

fc.weight f4 [10, 5408]
-0.0039565903 -0.017149383 -0.02220896 -0.07685692 -0.0707253 -0.01983997 -0.05843285 -0.030700179
-0.02967319 -0.046531763 -0.043104913 -0.06256816 -0.0049660364 -0.02797309 -0.08650038 -0.036322497
-0.028607855 -0.013165329 0.0035139765 -0.004286968 0.00780495 0.034621824 -0.013431543 -0.044062115
-0.021114185 -0.004299582 -0.005891252 -0.028849753 -0.009334463 -0.017560385 -0.0030735326 -0.013904809
-0.014992898 0.007456557 0.021626739 0.005087838 0.0039253575 0.00060051505 -0.06158199 0.0015670205
-0.020175131 -0.009227747 0.018520659 -0.0073869973 0.032900367 0.037763946 0.043885604 0.032473914
0.0067854603 0.012958877 0.026463017 -0.05727338 -0.025361314 -0.00613979 0.007310666 0.007834625
0.0297973 0.034992874 0.0060190675 0.038589995 0.055271782 0.016511861 0.014956798 0.017999109
-0.053773127 -0.030811299 0.015871258 0.043266024 -0.027695496 0.017610503 -0.011864519 -0.042265546
0.009041646 0.015076307 -0.00019095458 0.02249567 -0.028881807 0.006894636 -0.03134257 0.036156263
0.04572285 0.01836948 -0.0061221407 -0.014688145 -0.024406578 -0.002724009 -0.04462698 0.010154252
-0.016012521 0.009073424 0.012754262 -0.0174292 0.033833575 0.034773838 0.045708783 0.012373366
-0.05873761 -0.027702432 -0.030710319 -0.035964075 -0.00094377086 0.025370285 0.022934183 0.04526739
-0.041630115 0.031366657 0.020301688 0.026329685 0.045923885 -0.03338198 -0.038852893 -0.056832068
-0.021251405 -0.045016658 0.019279074 0.011100337 0.02380265 -0.048281778 0.017764667 0.006200958
-0.006940925 0.0063087656 -0.01868919 -0.0060271597 -0.043628544 -0.03413689 0.003998855 -0.012144094
0.0236577 0.010332304 -0.029597329 -0.0016519242 0.0054826676 -0.0007590041 -0.038166318 0.009567977
0.011360394 -0.0045673284 -0.04313679 -0.037997555 -0.010834453 -0.014740444 -0.009609218 -0.04051501
-0.02914558 -0.033875838 0.0024835737 0.0153094735 -0.011129114 -0.023191163 -0.049241554 -0.04830824
-0.07936405 -0.09347874 -0.052655425 -0.06637615 -0.027625056 -0.01779597 -0.080596924 -0.112604134
-0.051698755 -0.054917715 -0.081815325 -0.13283546 -0.102847576 -0.11078471 -0.060490895 -0.041590113
-0.01068277 -0.0010593657 -0.0594796 -0.031297073 -0.051176973 -0.09506744 -0.06188301 -0.05176093
-0.032351084 -0.046641022 -0.013008356 0.0070812786 -0.024075419 -0.038264807 -0.09102767 -0.09028024
-0.025918202 -0.015549025 0.0046030344 -0.011514031 0.023668896 -0.016073655 0.043489724 -0.018120434
-0.024577627 -0.058895364 -0.050782215 -0.019069929 -0.07291612 0.007360437 -0.022698373 -0.0061204406
-0.011281881 -0.022664243 -0.0153418295 0.0116795 -0.04048517 -0.025639169 -0.06444182 -0.078772046
0.009230794 -0.03452461 -0.0005531444 -0.0033320764 -0.006617573 -0.022417743 -0.000985734 -0.00022914908
-0.0013828466 0.03389469 0.019153612 0.0075160973 -0.05476505 0.006140496 -0.025331669 0.01101586
-0.031040255 -0.008850172 0.0016162011 -0.035007894 -0.008631281 0.004835672 0.016568715 0.014687579
0.03370514 -0.0037635376 -0.036746256 -0.029661411 0.015810644 0.023471324 0.050546676 -0.017680833
-0.050219174 -0.006405219 0.02623709 0.006138794 0.05432917 0.07565849 0.010349169 -0.04309234
0.0026290852 0.05297935 0.039201 0.010942793 -0.0006401752 -0.027694892 0.018999888 0.025383972
00000000: 49a6 81bb dd7c 8cbc 91ef b5bc 2967 9dbd
00000010: 6dd8 90bd 6f87 a2bc 4957 6fbd f17e fbbc
00000020: 3115 f3bc 1798 3ebd c78e 30bd bc23 80bd
00000030: 22ba a2bb d227 e5bc 1c27 b1bd e6c6 14bd
00000040: 055b eabc 64b3 57bc be4a 663b b279 8cbb
00000050: aac0 ff3b 9dcf 0d3d f90f 5cbc 7a7a 34bd
00000060: a8f7 acbc 82e3 8cbb 670b c1bb 5156 ecbc
00000070: 93ef 18bc ccda 8fbc 526d 49bb ffd0 63bc
00000080: c6a4 75bc 2256 f43b 8f2a b13c e1b7 a63b
00000090: 49a0 803b e26b 1d3a 663d 7cbd 7c64 cd3a
000000a0: 5146 a5bc fa2f 17bc a3b8 973c a00e f2bb
000000b0: 89c2 063d 5eae 1a3d 64c1 333d 5e03 053d
000000c0: 9158 de3b 7851 543c f8c8 d83c 7e97 6abd
000000d0: 88c2 cfbc 4b30 c9bb 508e ef3b cd5c 003c
000000e0: 7819 f43c b054 0f3d 993b c53b 8b10 1e3d
000000f0: aa64 623d e243 873c 5c0d 753c de72 933c
00000100: 3641 5cbd fa67 fcbc 7104 823c b737 313d
00000110: aae1 e2bc e743 903c 6663 42bc a31e 2dbd
00000120: 6923 143c 9d02 773c fb3a 48b9 d748 b83c
00000130: 8a99 ecbc 66ec e13b 1161 00bd 9718 143d
00000140: e247 3b3d 977b 963c 3d9c c8bb 8ca6 70bc
00000150: 4ef0 c7bc 4a85 32bb c8ca 36bd 055e 263c
00000160: b12c 83bc b3a8 143c 41f7 503c aec7 8ebc
00000170: 1395 0a3d 036f 0e3d 2239 3b3d a9b9 4a3c
00000180: d996 70bd 36f0 e2bc 3594 fbbc 114f 13bd
00000190: 6467 77ba 58d5 cf3c 78e0 bb3c 4c6a 393d
000001a0: 5784 2abd 537a 003d ba4f a63c 5ab1 d73c
000001b0: af1a 3c3d 8bbb 08bd 3624 1fbd bec8 68bd
000001c0: 6d17 aebc 6363 38bd 26ef 9d3c 30de 353c
000001d0: c6fd c23c 1dc3 45bd 3587 913c 6831 cb3b
000001e0: b370 e3bb c3b9 ce3b 121a 99bc 7b7f c5bb
000001f0: d8b3 32bd 20d3 0bbd d408 833b 06f8 46bc
00000200: cbcd c13c d348 293c 1976 f2bc 6185 d8ba
00000210: f3a7 b33b e7f7 46ba 4954 1cbd 01c3 1c3c
00000220: f220 3a3c 87a9 95bb 34b0 30bd 53a3 1bbd
00000230: fd82 31bc e781 71bc fb6f 1dbc 11f3 25bd
00000240: b6c2 eebc 64c1 0abd 74c3 223b 96d4 7a3c
00000250: e356 36bc 65fb bdbc 83b1 49bd dcde 45bd
00000260: 9e89 a2bd c871 bfbd 37ad 57bd 38f0 87bd
00000270: f14d e2bc dbc8 91bc 0010 a5bd ff9c e6bd
00000280: 13c2 53bd 66f1 60bd cb8e a7bd 0506 08be
00000290: c0a1 d2bd 18e3 e2bd 4dc5 77bd 655a 2abd
000002a0: c906 2fbc 6ada 8aba e2a0 73bd 5c31 00bd
000002b0: f29e 51bd b8b2 c2bd 0a79 7dbd 4503 54bd
000002c0: 9282 04bd a80a 3fbd 0021 55bc 120a e83b
000002d0: d039 c5bc 8fbb 1cbd b76c babd d9e4 b8bd
000002e0: 6952 d4bc 56c1 7ebc 0dd5 963b 59a5 3cbc
000002f0: 46e5 c13c e6ac 83bc 4822 323d 4e71 94bc
00000300: 0557 c9bc 443c 71bd 0301 50bd 8a38 9cbc
00000310: 0c55 95bd d22f f13b f0f1 b9bc fa8d c8bb
00000320: a3d7 38bc 5daa b9bc 4c5c 7bbc 605b 3f3c
00000330: c7d3 25bd 3c09 d2bc 13fa 83bd 3d53 a1bd
00000340: c23c 173c ad69 0dbd e400 11ba f75e 5abb
00000350: 3ad8 d8bb 6aa5 b7bc bf33 81ba bd47 70b9
00000360: a240 b5ba 29d5 0a3d 09e8 9c3c 9849 f63b
00000370: 5151 60bd 3736 c93b 5c84 cfbc de7b 343c
00000380: 2248 febc 5000 11bc b6d6 d33a 7064 0fbd
00000390: 376a 0dbc 8f74 9e3b 1dbb 873c 2ca4 703c
000003a0: 670e 0a3d afa5 76bb 3e83 16bd 7dfc f2bc
000003b0: 5385 813c ef46 c03c 080a 4f3d 65d7 90bc
000003c0: 9fb2 4dbd dfe2 d1bb 2aef d63c f027 c93b
000003d0: 4488 5e3d d7f2 9a3d 908f 293c 9881 30bd
000003e0: bb4c 2c3b e000 593d 3a91 203d 6749 333c
000003f0: 6ed1 27ba 66e0 e2bc a7a5 9b3c 0cf2 cf3c

fc.bias f4 [10]
0.0065283873 0.08033979 0.0026050222 -0.021885285 0.0072422735 0.026463501 -0.0076001147 0.026489867
-0.065770745 -0.008341897
00000000: 15ec d53b 3089 a43d 05b9 2a3b c548 b3bc
00000010: 9850 ed3b fcc9 d83c 620a f9bb 4701 d93c
00000020: d0b2 86bd 74ac 08bc
